…
        "colab": {
          "base_uri": "https://localhost:8080/"
        },
        "id": "Rvr-0GjGOpX_",
        "outputId": "384b0076-4f7c-4057-ece0-88860f5a9570"
      },
      "outputs": [
        {
          "output_type": "stream",
          "name": "stdout",
          "text": [
            "Model: \"sequential\"\n",
            "_________________________________________________________________\n",
            " Layer (type)                Output Shape              Param #   \n",
            "=================================================================\n",
            " conv2d (Conv2D)             (None, 126, 126, 16)      448       \n",
            "                                                                 \n",
            " max_pooling2d (MaxPooling2D  (None, 63, 63, 16)       0         \n",
            " )                                                               \n",
            "                                                                 \n",
            " conv2d_1 (Conv2D)           (None, 61, 61, 32)        4640      \n",
            "                                                                 \n",
            " max_pooling2d_1 (MaxPooling  (None, 30, 30, 32)       0         \n",
            " 2D)                                                             \n",
            "                                                                 \n",
            " conv2d_2 (Conv2D)           (None, 28, 28, 32)        9248      \n",
            "                                                                 \n",
            " max_pooling2d_2 (MaxPooling  (None, 14, 14, 32)       0         \n",
            " 2D)                                                             \n",
            "                                                                 \n",
            " conv2d_3 (Conv2D)           (None, 12, 12, 64)        18496     \n",
            "                                                                 \n",
            " max_pooling2d_3 (MaxPooling  (None, 6, 6, 64)         0         \n",
            " 2D)                                                             \n",
            "                                                                 \n",
            " conv2d_4 (Conv2D)           (None, 4, 4, 64)          36928     \n",
            "                                                                 \n",
            " max_pooling2d_4 (MaxPooling  (None, 2, 2, 64)         0         \n",
            " 2D)                                                             \n",
            "                                                                 \n",
            " flatten (Flatten)           (None, 256)               0         \n",
            "                                                                 \n",
            " dense (Dense)               (None, 128)               32896     \n",
            "                                                                 \n",
            " dense_1 (Dense)             (None, 1)                 129       \n",
            "                                                                 \n",
            "=================================================================\n",
            "Total params: 102,785\n",
            "Trainable params: 102,785\n",
            "Non-trainable params: 0\n",
            "_________________________________________________________________\n"
          ]
        }
…
